Model: "sequential"
_________________________________________________________________
 Layer (type)                Output Shape              Param #   
=================================================================
 simple_rnn (SimpleRNN)      (None, 60, 200)           40400     
                                                                 
 dropout (Dropout)           (None, 60, 200)           0         
                                                                 
 simple_rnn_1 (SimpleRNN)    (None, 200)               80200     
                                                                 
 dropout_1 (Dropout)         (None, 200)               0         
                                                                 
 dense (Dense)               (None, 1)                 201       
                                                                 
=================================================================
Total params: 120801 (471.88 KB)
Trainable params: 120801 (471.88 KB)
Non-trainable params: 0 (0.00 Byte)
_________________________________________________________________

        NUMBER_OF_LAYER = 2 

        NUMBER_OF_HIDDEN_UNITS = 200 

        NUMBER_OF_EPOCHS = 25
…
