Model: "sequential_1"
_________________________________________________________________
 Layer (type)                Output Shape              Param #   
=================================================================
 lstm (LSTM)                 (None, 10, 50)            10400     
                                                                 
 dropout_2 (Dropout)         (None, 10, 50)            0         
                                                                 
 lstm_1 (LSTM)               (None, 50)                20200     
                                                                 
 dropout_3 (Dropout)         (None, 50)                0         
                                                                 
 dense_1 (Dense)             (None, 1)                 51        
                                                                 
=================================================================
Total params: 30651 (119.73 KB)
Trainable params: 30651 (119.73 KB)
Non-trainable params: 0 (0.00 Byte)
_________________________________________________________________

        NUMBER_OF_LAYER = 2 

        NUMBER_OF_HIDDEN_UNITS = 50 

        NUMBER_OF_EPOCHS = 25
…
