Model: "sequential"
_________________________________________________________________
 Layer (type)                Output Shape              Param #   
=================================================================
 lstm (LSTM)                 (None, 60, 200)           161600    
                                                                 
 dropout (Dropout)           (None, 60, 200)           0         
                                                                 
 lstm_1 (LSTM)               (None, 200)               320800    
                                                                 
 dropout_1 (Dropout)         (None, 200)               0         
                                                                 
 dense (Dense)               (None, 1)                 201       
                                                                 
=================================================================
Total params: 482601 (1.84 MB)
Trainable params: 482601 (1.84 MB)
Non-trainable params: 0 (0.00 Byte)
_________________________________________________________________

        NUMBER_OF_LAYER = 2 

        NUMBER_OF_HIDDEN_UNITS = 200 

        NUMBER_OF_EPOCHS = 25
…
